WEB/front&backendWEB (2)/front&backendWEB/front&backendWEB/projetFlutter/my_dashboard/water_model.pt (torch, 826992 bytes, 9 tensors)

weight_ih_l0 f4 [520, 1]
0	0x3aeee582	0.0018226358
1	0xbb1cd27b	-0.0023929167
2	0xbb5dbd38	-0.0033834707
3	0xbaaf8f6c	-0.0013394183
4	0x3c230eff	0.009952306
5	0xbd43bab8	-0.04778549
6	0xbd3b665d	-0.045751918
7	0xbd352abf	-0.04423022
8	0xbd1426ab	-0.03616969
9	0x3ca93122	0.020653311
10	0x3e5b98e7	0.21445046
11	0xbe0979ee	-0.13425419
12	0xbd30b9bd	-0.043145884
13	0xbde138fe	-0.109971985
14	0x3e1a5f65	0.15075453
15	0x3d19dc7c	0.037563786
16	0x3e00749d	0.12544484
17	0xbe4c0022	-0.19921926
18	0xbb7608c8	-0.0037541855
19	0x3d2550e3	0.040360343
20	0x3cfe2cf2	0.031027291
21	0xbdb3751a	-0.0876257
22	0xbe477629	-0.19478668
23	0x3e1c07c4	0.15237337
24	0xbe1ab016	-0.15106234
25	0x3dd92e24	0.10604504
26	0x3e2ecf1f	0.17071198
27	0xbdf9f09e	-0.12204097
28	0x3c8e9d3b	0.017408958
29	0x3cd87671	0.026423665
30	0x3de1a876	0.110184595
31	0x3c9d2a9a	0.019185353
32	0xbdb7532f	-0.08951413
33	0x3d346466	0.04404106
34	0x3dab1c82	0.08355047
35	0xbe1c29e4	-0.15250355
36	0x3d29de5f	0.041471835
37	0xbd741367	-0.059588816
38	0x3ea52494	0.3225447
39	0x3dcbef63	0.09957769
40	0x3e2c0a56	0.16800818
41	0xbd192e9e	-0.037397973
42	0x3df76bec	0.12081131
43	0x3e1a14b7	0.15046965
44	0x3c947d12	0.018126044
45	0x3d6489a9	0.055795345
46	0x3d62025a	0.055178024
47	0x3afa3bab	0.0019091269
48	0x3c3ef1ca	0.011654327
49	0x3cdb4b26	0.026769232
50	0xbe1bd406	-0.152176
51	0x3e037764	0.12838513
52	0x3d4c5c2e	0.049892597
53	0xbd1118af	-0.03542393
54	0x3ce655c7	0.028117074
55	0xbdd2dffc	-0.10296628
56	0xbd11831f	-0.035525437
57	0xbd487c00	-0.04894638
58	0x3da06f74	0.07833758
59	0x3c8107b5	0.015750745
60	0x3db605b3	0.08887806
61	0xbd90bc66	-0.07067184
62	0x3dd829d6	0.105548546
63	0xbdbe7faf	-0.093016975
64	0x3dc68f98	0.09695357
65	0x3c3bade8	0.011455037
66	0x3db5da0c	0.0887948
67	0x3d375c80	0.04476595
68	0xbe3ae74c	-0.18252295
69	0x3bf473f3	0.0074601113
70	0x3d9c6607	0.07636648
71	0xbcc835d9	-0.024439739
72	0xbe19429b	-0.14966814
73	0xbda6998a	-0.08134754
74	0xbd4ede67	-0.05050507
75	0x3db574ab	0.08860143
76	0xbdb34d19	-0.087549396
77	0xbb67c6de	-0.0035366337
78	0xbe1b45dd	-0.1516337
79	0x39b05932	0.00033635792
80	0xbd0c5d42	-0.034268625
81	0xbd4d8cbb	-0.05018304
82	0xbc03c762	-0.008043142
83	0xbcea72f1	-0.028619261
84	0xbe640892	-0.22268894
85	0xbd878085	-0.0661631
86	0xbd333fc4	-0.043761984
87	0xbd00f446	-0.031482957
88	0x3cb9082a	0.0225869
89	0x3d08adb8	0.033368796
90	0xbd8e022a	-0.069340065
91	0xbca9c4cc	-0.020723723
92	0xbc75b2d9	-0.014996254
93	0x3da34235	0.07971612
94	0xbae4289a	-0.001740712
95	0x3e8f1693	0.2794691
96	0xbd9b5e94	-0.07586399
97	0xbc45c437	-0.012070707
98	0xbdfecc98	-0.12441367
99	0xbe085718	-0.13314474
100	0x3d898207	0.06714254
101	0xbd7a4606	-0.061101936
102	0x3b82279c	0.003972007
103	0xbc6de8b4	-0.014520813
104	0x3dc4b3b3	0.096045874
105	0x3e028aad	0.12748213
106	0x3e4af2f5	0.19819243
107	0x3d9f0145	0.07763914
108	0xbd7f8e56	-0.0623916
109	0x3cf40bde	0.029790815
110	0x3e19ee00	0.15032196
111	0xbe6b34b6	-0.22969326
112	0xbdb34b3f	-0.087545864
113	0xbe44f39a	-0.19233552
114	0x3e7740fe	0.24145886
115	0xbd82a34a	-0.06378801
116	0xbdbfd908	-0.09367567
117	0xbe37790c	-0.1791727
118	0xbd776fd5	-0.060409386
119	0x3e174f2b	0.14776294
120	0x3d9c91c3	0.07644989
121	0x3df7b680	0.12095356
122	0x3cfd7e0a	0.03094389
123	0x3ce412f0	0.027841061
124	0x3d0a26cc	0.033728406
125	0x3bd4d71c	0.0064953696
126	0x3e2718ca	0.1631805
127	0x3ca25ac2	0.019818667
128	0xbe3f0f96	-0.1865829
129	0x3dcd389f	0.10020565
130	0x3ca31646	0.019908082
131	0x3dc624e8	0.09675008
132	0x39ecbfd3	0.00045156348
133	0x3d6858b1	0.056725208
134	0x3d1865bc	0.037206396
135	0xbd5300dc	-0.05151449
136	0x39028796	0.00012448276
137	0x3d424aaf	0.047434505
138	0x3e1bf39b	0.15229647
139	0xbd2261e4	-0.039644137
140	0x3e9a87b2	0.30181652
141	0x3b3a5d46	0.0028436943
142	0x3d4c6978	0.04990527
143	0xbdf0c3a6	-0.11756067
144	0x3e34daa3	0.17661528
145	0x3dad5d46	0.08465056
146	0x3def8cfa	0.11696811
147	0x3bb63f50	0.0055617467
148	0x3d0a8ffe	0.033828728
149	0x3d73f85d	0.05956303
150	0x3bcb2f9d	0.0062007443
151	0xbd2c7366	-0.04210224
152	0xbcbf6912	-0.023365531
153	0x3e1d8eb9	0.15386476
154	0x3d8bffd4	0.06835905
155	0x3dd653d1	0.104652055
156	0x3e38943e	0.180253
157	0xbde51d16	-0.11187188
158	0x3d0290c3	0.031876337
159	0x3d94fcf4	0.072748095
160	0xbd44cbe5	-0.04804601
161	0xbd233f6e	-0.039855413
162	0x3ccc9957	0.024975462
163	0x3dce76d5	0.10081259
164	0x3c917059	0.017753767
165	0xbda06caa	-0.07833226
166	0x3d44c002	0.048034675
167	0x3b12d713	0.0022406026
168	0x3ed52187	0.41627142
169	0x3da0ce29	0.07851822
170	0x3e37cd56	0.17949423
171	0xbd5bcae2	-0.05366028
172	0x3d358b84	0.044322506
173	0x3da146b1	0.078748114
174	0x3de2c858	0.11073369
175	0x3e2ef736	0.17086491
176	0xbd5ddd41	-0.054166082
177	0xbdb4c3d7	-0.08826416
178	0x3dbda9ae	0.092608795
179	0x3d0b026d	0.03393786
180	0xbd7c3110	-0.061570227
181	0x3e3232ed	0.17402239
182	0x3d232f39	0.039839957
183	0xbcff7df3	-0.031187987
184	0x3bfb96f6	0.007677908
185	0xbd4c089c	-0.049812898
186	0x3bdfb477	0.006826933
187	0x3d5247f5	0.051338155
188	0xba7909bb	-0.0009500046
189	0x3d57800c	0.05261235
190	0xba6b86b7	-0.00089846127
191	0xbc9380e7	-0.018005801
192	0x3d0f3175	0.034959275
193	0x3dcf8b79	0.10134024
194	0x3e26a85d	0.16275163
195	0x3dfb3200	0.12265396
196	0x3e3df632	0.18550947
197	0x3d00ef74	0.03147836
198	0x3c97537e	0.01847243
199	0x3d5bcafd	0.05366038
200	0xbca3d962	-0.020001117
201	0xbc838b42	-0.016057614
202	0xbe14617a	-0.1449031
203	0xbdcda026	-0.100403115
204	0x3d467cfe	0.048459046
205	0x3d45445a	0.04816089
206	0xbd3059a7	-0.04305425
207	0xbcc633ca	-0.024194617
208	0xbc316207	-0.010826594
209	0x3d381953	0.044946026
210	0x3c4b7c52	0.012419777
211	0x3c7c4f64	0.015399788
212	0x3b659fc5	0.0035037857
213	0x3d8d39a5	0.068957604
214	0xbd1f9f46	-0.038970254
215	0x3d1d126e	0.038347654
216	0x3ce4fb1f	0.027951775
217	0x3d6580b4	0.056030944
218	0x3dde94f0	0.10868251
219	0x3dc140a2	0.09436156
220	0x3df310a7	0.118684106
221	0x3d7e60b5	0.062103946
222	0x3e19fe69	0.15038456
223	0xbc875658	-0.016520664
224	0x3dc12d5f	0.09432482
225	0x3edacd2c	0.4273466
226	0x3d4d2907	0.050087955
227	0x3dc6a1a3	0.096987985
228	0xbda46c63	-0.080284856
229	0xbdabe7a3	-0.083937906
230	0x3d7b0da6	0.061292313
231	0x3c912271	0.017716618
232	0xbd1b3182	-0.03788901
233	0x3dbfa9ea	0.093585804
234	0x3e68657c	0.22694963
235	0x3e34f836	0.1767281
236	0x3e2734e9	0.16328777
237	0x3e019172	0.12653139
238	0x3c7a5c87	0.015280849
239	0xbbfe7bfb	-0.0077662445
240	0x3e55f3df	0.2089381
241	0xbdddc4cc	-0.10828552
242	0x3d9c3ebc	0.07629153
243	0x3d85dd23	0.06536319
244	0x3e8e075c	0.2773999
245	0x3d5c0b46	0.05372169
246	0xbd6d8dde	-0.057996623
247	0xbc3d7adc	-0.0115649365
248	0xbd92a8b6	-0.07161085
249	0x3e1fbf2d	0.15600272
250	0x3dadcf61	0.0848682
251	0x3df67de7	0.12035733
252	0x3e02afbf	0.12762354
253	0x3d80a05f	0.06280588
254	0x3a2ebd96	0.0006665824
255	0x3d12ceed	0.03584187

weight_hh_l0 f4 [520, 130]
0	0x3b9234d0	0.004461862
1	0x3d83fc7c	0.06444642
2	0x3c3007e3	0.010744068
3	0x3bdaaed5	0.0066736736
4	0xbd625ddf	-0.055265304
5	0xbd773075	-0.060348947
6	0xbd45136f	-0.048114236
7	0x3c1e59a5	0.009664928
8	0x3d815e3b	0.06316801
9	0xbd7200fb	-0.059082966
10	0xbd56c40a	-0.05243305
11	0x3c94cc05	0.01816369
12	0x3da4cc5c	0.08046791
13	0xbd7ea63f	-0.062170263
14	0x3d699b21	0.057032708
15	0x3d5b80d8	0.05358967
16	0xbd32fee4	-0.043700114
17	0xbca5f4bc	-0.0202583
18	0x3cc41fea	0.023940999
19	0xbd8bae59	-0.068203636
20	0xbd7da256	-0.061922394
21	0xbd59c755	-0.053168613
22	0xbc236720	-0.009973317
23	0x3ddd3305	0.10800747
24	0xbd59f654	-0.053213432
25	0xbca5de46	-0.02024759
26	0xbd8da9ec	-0.06917176
27	0x3d5ee497	0.05441722
28	0xbd70ea60	-0.058817267
29	0xbd6ce5eb	-0.057836454
30	0xbda4bd35	-0.08043901
31	0x3d82eee8	0.06393224
32	0xbc72d2bf	-0.014820754
33	0x38c08db6	9.181669e-05
34	0x3d8704e9	0.065927334
35	0xbd1d8309	-0.038455043
36	0x3d25b535	0.040456016
37	0x3d0f680d	0.03501134
38	0x3d0a1f0f	0.033721026
39	0x3d2b1e68	0.041777045
40	0x3cd679c1	0.026181104
41	0x3b3c354b	0.0028718289
42	0x3d40a823	0.047035348
43	0x3c2a1d12	0.010382907
44	0x3c219999	0.009863281
45	0x3d7bd5b3	0.061483096
46	0xbc43edb5	-0.011958529
47	0x3bd2253a	0.006413129
48	0x3dc33e03	0.09533312
49	0x3d72f267	0.059313204
50	0x3badd5e1	0.0053050374
51	0xbd2a8bb7	-0.04163715
52	0xbd35e163	-0.0444044
53	0xbd6a8838	-0.057258815
54	0xbd51bd70	-0.051206052
55	0xbdada73c	-0.08479163
56	0x3cd85c56	0.026411217
57	0x3cd8e640	0.02647698
58	0xbd628777	-0.05530497
59	0xbcb0c879	-0.021579968
60	0x3da72154	0.08160654
61	0x3cf6ae3d	0.03011238
62	0x3da6c009	0.081420965
63	0xbd7ed6d1	-0.062216584
64	0xbd8cb224	-0.06869915
65	0x3d20a384	0.03921844
66	0x3d6fd46f	0.0585522
67	0x3db873c6	0.09006457
68	0x3d055c67	0.032558825
69	0xbd07f878	-0.033195943
70	0x3d3eb77a	0.046561696
71	0xbd4f2a52	-0.05057747
72	0xbc68109d	-0.014164117
73	0xbc7ae73b	-0.015313919
74	0x3d3ec0f2	0.046570726
75	0x3d19d3ca	0.037555493
76	0xbd8ff318	-0.07028788
77	0x3d5f54f5	0.05452438
78	0xbbf591fe	-0.0074942103
79	0xbd287573	-0.041127633
80	0x3cd8c39d	0.026460463
81	0x3d31cb9a	0.04340706
82	0xbcd69181	-0.026192429
83	0xbcc4bfd5	-0.024017254
84	0x3d5d9c6e	0.05410426
85	0x3dd7366e	0.105084285
86	0x3dbe2461	0.092842825
87	0xbcf364ab	-0.029711088
88	0x3d980e8b	0.07424649
89	0x3ce065bc	0.02739226
90	0xbd658371	-0.056033555
91	0x3d1c6302	0.03818036
92	0xbcac5ff6	-0.021041851
93	0xbac1918e	-0.001476811
94	0xbcb920ff	-0.022598742
95	0xbbefe338	-0.0073207878
96	0x3d8dbaa5	0.06920365
97	0x3d4e6ad3	0.050394844
98	0x3da519b5	0.08061544
99	0x3d873d07	0.06603437
100	0xbd9b9fec	-0.07598862
101	0x3c646775	0.013940682
102	0xbd5a7a92	-0.05333955
103	0x3d25c8dd	0.04047476
104	0xbdb31c68	-0.087456524
105	0x3d5fd9d5	0.0546511
106	0x3df25afd	0.11833761
107	0xbd574cd6	-0.05256351
108	0xbd8800b9	-0.06640763
109	0xbdd3873b	-0.103285275
110	0xbd06f45c	-0.032947883
111	0xbd2d3aa5	-0.042292256
112	0xbd6e7620	-0.05821812
113	0x3d3e3b29	0.04644314
114	0xbdc99010	-0.09841931
115	0x3c2ba482	0.010476233
116	0x3cf0ba6d	0.02938577
117	0xbbda86d3	-0.0066689043
118	0xbd9bee0b	-0.076137625
119	0x3d6a51f9	0.05720708
120	0x3ca785a0	0.02044946
121	0x3db878c9	0.09007413
122	0x3d716bd1	0.058940712
123	0xbcde053f	-0.02710211
124	0xbd3251b4	-0.04353495
125	0xbc1557e4	-0.009115193
126	0x3d56aea5	0.052412648
127	0x3c80be78	0.015715823
128	0xbc3cd874	-0.011526216
129	0x3cb79de9	0.022414165
130	0x3d808104	0.06274608
131	0xbda57010	-0.08078015
132	0xbe64d5ca	-0.22347179
133	0xbc9f9fca	-0.019485373
134	0x3d9ab4ba	0.07554002
135	0xbd67d67f	-0.056601044
136	0x3d806ffb	0.062713586
137	0xbd48aa76	-0.04899069
138	0xbd927554	-0.07151285
139	0x3d7c3fd5	0.061584312
140	0x3e668c8e	0.22514555
141	0xbbb7fcf1	-0.0056148698
142	0xbcfd4042	-0.03091443
143	0xbe337963	-0.17526774
144	0xba5d2a66	-0.0008436799
145	0x3cec47b1	0.028842779
146	0x3dc2e139	0.09515614
147	0x3e3f5b21	0.18687107
148	0xbd9b728f	-0.0759021
149	0x3da96cd9	0.08272714
150	0x3e304198	0.17212522
151	0xbdc26baa	-0.094931915
152	0x3e0651a8	0.13117087
153	0x3d7b6c57	0.061382618
154	0x3d092440	0.033481836
155	0xbe26c1fe	-0.1628494
156	0x3cad079c	0.021121792
157	0xbdc02da4	-0.09383705
158	0xbd63d924	-0.055627003
159	0x3de49d12	0.11162771
160	0x3d2f7e5d	0.04284512
161	0xbc8a2559	-0.016863512
162	0xbc132caf	-0.008982821
163	0xbd0d3bc3	-0.03448082
164	0xbc727e0e	-0.014800562
165	0x3d1d2f61	0.038375262
166	0xbd34aa99	-0.044108007
167	0xbde7411a	-0.11291714
168	0xbeb56bde	-0.3543386
169	0xbcbe8bd4	-0.023260035
170	0xbd635928	-0.055504948
171	0x3d50690b	0.050881427
172	0x3d3b2ecc	0.045698926
173	0xbdbf0cd0	-0.09328616
174	0xbce373bd	-0.02776515
175	0xbe53d8f1	-0.20688225
176	0xbcde9d6b	-0.027174672
177	0xbd35e072	-0.0444035
178	0x3d23ee9e	0.040022485
179	0xbd2887c8	-0.041145116
180	0x3b79869f	0.0038074625
181	0x3e0dbf4a	0.13842502
182	0x3c3e03b2	0.011597561
183	0x3d3dbe9a	0.04632435
184	0xbd397ae1	-0.045283202
185	0x3cd44920	0.025913775
186	0xbe8f5ce7	-0.28000566
187	0x3d5893a4	0.052875176
188	0xbdaaf2b6	-0.08347075
189	0xbd9264b8	-0.07148117
190	0xbd3b798a	-0.045770206
191	0xbd3d3549	-0.046193395
192	0x3ea4eed8	0.32213473
193	0x3c41ac31	0.011820839
194	0xbdc57230	-0.0964092
195	0xbcd3e49b	-0.025865844
196	0xbe143216	-0.14472231
197	0xbdaefc2c	-0.08544192
198	0x3db71004	0.089386016
199	0xbd626130	-0.055268466
200	0xbd4ced82	-0.050031193
201	0xbb72a202	-0.0037022834
202	0xbd38001a	-0.04492197
203	0xbd2ca85d	-0.04215275
204	0xbd3e4120	-0.046448827
205	0x3d10314a	0.035203256
206	0xbd8ac645	-0.06776098
207	0xbe34dddb	-0.17662756
208	0x3e028219	0.12744941
209	0xbd96df03	-0.07366755
210	0xbd091dab	-0.03347556
211	0x3addc9c4	0.0016921093
212	0x3d840338	0.064459264
213	0x3dc99e3b	0.09844633
214	0xbd0c628a	-0.03427366
215	0x3ce616c5	0.02808703
216	0x3e03e67c	0.12880892
217	0xbc974cc9	-0.018469231
218	0xbdbce90f	-0.0922414
219	0xbdef241c	-0.11676809
220	0xbe56d21d	-0.2097859
221	0xbd8433f9	-0.064552255
222	0x3e21a41e	0.15785262
223	0xbc937cb8	-0.018003806
224	0x3e4cbfbc	0.19995016
225	0x3e6012f6	0.21882233
226	0x3cb86bd6	0.022512358
227	0x3e492da2	0.19646314
228	0x3c5b638c	0.013390433
229	0x3e0337f4	0.12814313
230	0x3d905e63	0.07049253
231	0xbccd3626	-0.025050234
232	0x3da71015	0.08157364
233	0xbcbcade4	-0.023032136
234	0x3e80b640	0.25139046
235	0x3e8dac96	0.27670735
236	0xbe3811a4	-0.1797548
237	0xbe056434	-0.13026506
238	0xbc2bcf79	-0.010486477
239	0x3da3b1f0	0.07992923
240	0x3e66f4e4	0.22554356
241	0x3df488e5	0.11940173
242	0x3d7a21f4	0.061067536
243	0xbe231679	-0.15926541
244	0x3e226a6e	0.15860912
245	0x3c1585a2	0.009126099
246	0xbd73a312	-0.059481688
247	0xbd94ba62	-0.07262112
248	0xbc94613b	-0.01811277
249	0xbda5d68a	-0.08097561
250	0x3d646517	0.05576047
251	0xbc9c52e8	-0.019082502
252	0xbdf6de6b	-0.120541416
253	0xbd89c4cf	-0.067269914
254	0xbc9652d8	-0.01835005
255	0x3e5935b3	0.21211891

bias_ih_l0 f4 [520]
0	0x3ba6940c	0.0050835665
1	0xbdb36a80	-0.08760548
2	0xbcfd0fe0	-0.030891359
3	0xbd1d8111	-0.038453165
4	0xbb70c546	-0.0036738678
5	0xbd6e76a8	-0.05821863
6	0xbd9537ae	-0.07286011
7	0xbda8a8c7	-0.08235317
8	0xbddbcd2e	-0.10732494
9	0xbdb9d40c	-0.09073648
10	0x3dd29ec1	0.10284186
11	0xbd801c25	-0.06255368
12	0xbd67f39e	-0.056628816
13	0xbdd87dba	-0.105708554
14	0xbd019f80	-0.03164625
15	0xbd50622e	-0.05087488
16	0x3d04afe4	0.032394305
17	0x3ca724be	0.020403262
18	0x3d1bd9c6	0.03804948
19	0x3d4c455a	0.049870826
20	0xbd3c0258	-0.045900673
21	0xbdb02625	-0.086010255
22	0xbd117744	-0.03551413
23	0xbd8667cc	-0.065627664
24	0xbdf0ce4f	-0.117581
25	0x3dacd9b0	0.08439958
26	0xbcbf2043	-0.023330813
27	0x3cd8885c	0.026432209
28	0xbd8626ed	-0.06550393
29	0x3cf81fec	0.030288659
30	0x3d1b62eb	0.037936132
31	0xbc7f5a8d	-0.015585554
32	0xbcc9b931	-0.024624439
33	0xbd534e8f	-0.05158859
34	0xbd205042	-0.03913904
35	0xbdb6e30f	-0.08930027
36	0xbd978d2a	-0.07399972
37	0xbcd1036b	-0.025514325
38	0x3e97f19f	0.2967653
39	0xbdc7e190	-0.097598195
40	0xbd8b7562	-0.06809498
41	0xbdaf78f5	-0.085679926
42	0xbd8ad941	-0.06779719
43	0x3ca5c03d	0.020233268
44	0x3d7c4fd5	0.06159957
45	0x3d9107bc	0.07081553
46	0xbcbcdb3e	-0.023053762
47	0xbdd7e6cb	-0.10542067
48	0xbdf25346	-0.118322894
49	0x3c83b060	0.016075313
50	0x3cc2579a	0.023723412
51	0x3d96f5b7	0.07371085
52	0xbccbbe61	-0.024871053
53	0xbda6d10e	-0.08145343
54	0x3b855b86	0.0040697483
55	0x3c85ecbd	0.016348237
56	0x3cc03a2c	0.023465239
57	0xbda5bdfd	-0.08092878
58	0xbd0ef60e	-0.034902625
59	0x3d0ad614	0.033895567
60	0x3ca828f4	0.02052734
61	0x3c8b3e1c	0.01699739
62	0xbd10280d	-0.035194445
63	0x3c52d1c5	0.012867396
64	0x3d4be67b	0.04978035
65	0xbc096f3b	-0.008388336
66	0x3da50788	0.08058077
67	0x3d249f00	0.040190697
68	0x38cb774d	9.702016e-05
69	0x3d1dc7c3	0.038520586
70	0x3d05368e	0.03252273
71	0x3d75f527	0.06004825
72	0xbe0e117d	-0.13873859
73	0xbe22f01a	-0.15911904
74	0xbdb36f15	-0.087614216
75	0x3d0f443d	0.034977186
76	0xbd1ba0b1	-0.037995044
77	0xbde28fd9	-0.11062593
78	0xbcb98655	-0.022647062
79	0xbd9165d0	-0.07099497
80	0xbdc32418	-0.09528369
81	0xbdaaf87f	-0.08348178
82	0x3b7b0162	0.0038300385
83	0xbc98a429	-0.018632965
84	0xbc4904cd	-0.012269211
85	0xbd1b612e	-0.037934475
86	0xbd54bc7d	-0.05193757
87	0xbcf12237	-0.02943526
88	0x3d09f6d4	0.03368266
89	0xbda0f6df	-0.07859587
90	0x3d44f3f5	0.048084218
91	0xbde76f00	-0.113004684
92	0x3d1c4048	0.03814724
93	0xbd3a9fbb	-0.045562487
94	0xbbbad8b2	-0.0057021016
95	0x3eb1c3f9	0.34719828
96	0xbdad60fd	-0.08465765
97	0x3c8ba29d	0.017045313
98	0xbd7bacc4	-0.06144406
99	0x3caa94a2	0.020822827
100	0xbdb80a2d	-0.08986316
101	0xbdc15938	-0.09440845
102	0xbdf4cf1d	-0.11953566
103	0x3c940f30	0.018073648
104	0x3d2497cd	0.04018383
105	0x3d75f457	0.060047474
106	0x3e291b59	0.16514339
107	0x3bd55b38	0.0065111183
108	0xbb374973	-0.0027967363
109	0x3caf13c4	0.02137173
110	0x3e77a7d9	0.24185123
111	0xbd6782a3	-0.05652107
112	0x3d54d4ac	0.051960632
113	0xbc169f41	-0.0091932425
114	0x3e121a71	0.14267899
115	0x3d50dd0c	0.050992057
116	0xbe04b969	-0.12961353
117	0xbd635591	-0.055501524
118	0xbdb531aa	-0.08847363
119	0x3d097232	0.03355617
120	0xbc39c4bb	-0.011338408
121	0xbd8f7455	-0.070046104
122	0xbad2a2d5	-0.0016070256
123	0x3cb31fb3	0.021865701
124	0xbdb08896	-0.08619802
125	0x3d115016	0.035476767
126	0x3d4a557a	0.049397923
127	0x3d077023	0.033065926
128	0xbd9db315	-0.07700173
129	0xbd7c8814	-0.06165321
130	0xbd97265f	-0.073803656
131	0xbdc673d3	-0.096900605
132	0xbd7da3b8	-0.061923712
133	0xbd702da9	-0.058637295
134	0xbdbb61a2	-0.09149481
135	0xbd398bd2	-0.04529936
136	0x3d1befbd	0.03807043
137	0xbd452148	-0.048127443
138	0xbda98131	-0.082765944
139	0x3d91abf0	0.071128726
140	0xbde89431	-0.1135639
141	0xbdb3600d	-0.087585546
142	0xbdaca1ca	-0.08429296
143	0x3d432b40	0.04764867
144	0xbdadb155	-0.08481089
145	0x3af292fe	0.0018506942
146	0xbe1a2177	-0.15051828
147	0xbd5f21f1	-0.05447573
148	0x3d33d693	0.043905806
149	0xbcaa89ad	-0.020817602
150	0x3cca5cb6	0.024702411
151	0xbd1c796c	-0.038201734
152	0x3cc34bc2	0.023839835
153	0xbdd850be	-0.10562275
154	0x3ce46dc8	0.027884379
155	0x3d88e5df	0.066844694
156	0xbdecc0bb	-0.11560198
157	0xbd882435	-0.06647531
158	0xbd876db7	-0.06612723
159	0xbcedc1f4	-0.029023148
160	0x3d8d1f01	0.06890679
161	0xbdaa0a4c	-0.08302745
162	0xbdb3a234	-0.08771172
163	0xbdd28720	-0.10279679
164	0xbbd05953	-0.0063583045
165	0xbdba489d	-0.09095881
166	0xbd4ba948	-0.049721986
167	0x3df19ebe	0.11797856
168	0x3e708368	0.23487628
169	0x3cf12dda	0.029440809
170	0xbcd513f9	-0.0260105
171	0x3d0a609f	0.03378355
172	0x3d3940f4	0.04522796
173	0xbdc39817	-0.09550493
174	0xbda03f24	-0.07824543
175	0xbd975179	-0.073885866
176	0xbd0a1dc6	-0.0337198
177	0xbd8af734	-0.067854315
178	0xbe1671b9	-0.14691819
179	0x3bf9cb90	0.0076231435
180	0xbcca954e	-0.024729397
181	0xbdcec409	-0.100959845
182	0x3d4b484d	0.0496295
183	0x3d010e44	0.031507745
184	0x3c9bbe56	0.019011658
185	0xbd598ddb	-0.0531138
186	0x3dd754e3	0.10514238
187	0x3d4ea08f	0.05044609
188	0x3d2cf62d	0.04222696
189	0xbd11af8a	-0.035567798
190	0x3d28c203	0.04120065
191	0x3b6d3d37	0.0036199817
192	0xbd388a04	-0.045053497
193	0xbdbe8245	-0.09302191
194	0xbd44ce67	-0.048048403
195	0x3d28c0c0	0.041199446
196	0x3c2a23bd	0.010384497
197	0xbdc36fad	-0.09542785
198	0x3d410581	0.04712439
199	0xbd8a16db	-0.067426406
200	0x3d6eb99e	0.058282487
201	0x3d696892	0.05698449
202	0xbded15a2	-0.11576392
203	0xbd61d1d0	-0.055131733
204	0xbda70787	-0.081557326
205	0xbd1c678c	-0.038184687
206	0xbd692b75	-0.05692621
207	0xbdf826e5	-0.121167935
208	0xbd6df19a	-0.058091737
209	0xbda13f53	-0.07873406
210	0xbe02219c	-0.12708133
211	0xbdcb6ec3	-0.099332355
212	0xbd07a3d6	-0.03311523
213	0x3d237773	0.039908838
214	0xbd1470ce	-0.03624039
215	0xbdb50659	-0.08839101
216	0xbd9c6f29	-0.076383896
217	0xbb8a10b7	-0.0042134183
218	0xbdbf3cc0	-0.09337759
219	0xbb871626	-0.0041225133
220	0x3d2054f7	0.03914353
221	0x3d6cf6c5	0.057852525
222	0xbd809631	-0.06278647
223	0xbd9f4552	-0.07776894
224	0xbcc9b084	-0.024620302
225	0x3e9f0690	0.31059694
226	0xbdf6e4bf	-0.120553486
227	0x3cd56c4c	0.026052617
228	0xbcda208b	-0.026626846
229	0xbb8d51ea	-0.0043127434
230	0x3bb713ba	0.0055870684
231	0xbd89aff2	-0.06723012
232	0xbc3d2257	-0.011543832
233	0x3cbbd460	0.022928417
234	0x3c37b78f	0.011213197
235	0xbddb19c7	-0.10698276
236	0xbc750cc7	-0.01495666
237	0xbd0566ac	-0.03256862
238	0xbdd667b2	-0.10468997
239	0xbd21eb93	-0.0395313
240	0xbdbd43c2	-0.092414394
241	0xbd9008f2	-0.07032956
242	0x3b0d0dcb	0.0021523114
243	0x3b02fc95	0.0019986976
244	0x3caafcc5	0.020872483
245	0xbc4e69bd	-0.012598452
246	0xbe1488d1	-0.14505316
247	0x3c487e0f	0.012237086
248	0xbdfa91f4	-0.122348696
249	0xbd091f01	-0.033476833
250	0xbe227d69	-0.15868153
251	0x3ba2aded	0.004964581
252	0x3c9ca619	0.01912217
253	0x3d7871c3	0.060655367
254	0xbd656efd	-0.05601405
255	0x3dab1cec	0.08355126

bias_hh_l0 f4 [520]
0	0xbd2a3e96	-0.041563593
1	0x3d09b5a8	0.033620507
2	0xbdebec5d	-0.11519692
3	0xbc2455c4	-0.010030214
4	0xbda1cdeb	-0.07900604
5	0x3cf53622	0.02993304
6	0xbda32db8	-0.079677045
7	0xbdaae2e1	-0.08344055
8	0xbd253488	-0.0403333
9	0xbc0b5a13	-0.008505362
10	0x3da12603	0.07868578
11	0xbc3374d0	-0.010953143
12	0xbd9767d6	-0.07392852
13	0xbc2e136a	-0.010624746
14	0xbdeaacfb	-0.11458775
15	0xbdc4387f	-0.09581088
16	0xbce8a9f9	-0.028401362
17	0xbaa4d470	-0.0012575518
18	0x3cf42dd3	0.029807007
19	0xbcf9c305	-0.0304885
20	0xbda8b414	-0.08237472
21	0x3cd90631	0.02649221
22	0xbce6af73	-0.028159833
23	0x3d14095a	0.03614173
24	0xbe00eefa	-0.12591162
25	0x3de9d36a	0.11417277
26	0xbc043118	-0.0080683455
27	0xbd594342	-0.053042658
28	0x3d4ec969	0.05048505
29	0x3b8167ed	0.0039491565
30	0x3ce667f8	0.028125748
31	0xbd2a4b22	-0.04157556
32	0xbcc582a7	-0.024110151
33	0xbd1094c3	-0.03529812
34	0x3bec82ef	0.007217757
35	0xbc28fba8	-0.010313906
36	0xbcad04f1	-0.02112052
37	0x3b896ada	0.004193646
38	0x3e57e1ac	0.2108218
39	0x3cb63e82	0.022246603
40	0xbd3faf39	-0.046797965
41	0xbc85c0d2	-0.016327295
42	0xbd48106c	-0.048843786
43	0x3cabef0c	0.02098801
44	0xbd7f391e	-0.06231033
45	0xbccf7270	-0.025323123
46	0xbe04d979	-0.12973584
47	0xbdb1eb5b	-0.086874686
48	0xbd31ecc2	-0.04343868
49	0x3d488362	0.04895342
50	0x3ccf3e11	0.02529815
51	0xbd600e6d	-0.054701257
52	0xbd5dc7c1	-0.05414558
53	0xbd2a2838	-0.04154226
54	0xbde40dce	-0.111354455
55	0x3cdcbdb1	0.02694592
56	0xbd84f7c1	-0.06492568
57	0xbc557c20	-0.013030082
58	0x3c5f442e	0.013627095
59	0x3a4729aa	0.0007597456
60	0x3d0ccca8	0.034374863
61	0xbc186177	-0.009300581
62	0xbd1c532f	-0.038165268
63	0xbc882af5	-0.016622046
64	0x3da4e464	0.080513746
65	0xbd38beca	-0.045103826
66	0xbcf38324	-0.029725619
67	0xbd512881	-0.05106402
68	0xbd933596	-0.07187955
69	0x3d3680bb	0.04455636
70	0xbb545c14	-0.0032403516
71	0xbda736e5	-0.08164767
72	0xbced9cdb	-0.029005459
73	0xbe0f5d3e	-0.14000413
74	0xbd5839a0	-0.05278933
75	0xbdaf235c	-0.08551666
76	0xbd509845	-0.050926466
77	0xbc70de45	-0.014701431
78	0xbd812388	-0.06305605
79	0x3d41ac56	0.047283493
80	0xbc912d9a	-0.01772194
81	0x3d2379ea	0.03991119
82	0xbd7cb776	-0.0616984
83	0xbd689f9e	-0.056792848
84	0xbd617507	-0.055043247
85	0xbc089e83	-0.008338573
86	0xbdd24dd2	-0.10268749
87	0x3d351eb5	0.044218738
88	0xbb419b74	-0.002954212
89	0xbd1fff7b	-0.039062005
90	0x3d916a71	0.0710038
91	0x3d69dd59	0.05709586
92	0xbdef5e05	-0.11687855
93	0xbdf641ff	-0.120243065
94	0xbd5053bf	-0.050861116
95	0x3ea49a93	0.3214918
96	0xbdfff462	-0.12497784
97	0xbcf4a543	-0.02986396
98	0xbc147faa	-0.009063641
99	0x3d122c1a	0.03568659
100	0xbcc8eaae	-0.024525966
101	0xbb8bd1cd	-0.0042669536
102	0xbca726c7	-0.020404233
103	0x3ce55d43	0.027998572
104	0x3de82d75	0.11336795
105	0x3d17bc35	0.037044723
106	0x3ce66e1a	0.028128672
107	0x3caed42f	0.021341411
108	0xbc1f4351	-0.009720639
109	0x3d60d742	0.054892786
110	0x3e47793e	0.19479844
111	0xbe0e19d8	-0.13877046
112	0xbd7190c0	-0.058975935
113	0xb81b02ac	-3.6957368e-05
114	0x3dec2673	0.11530771
115	0xbd6cc372	-0.05780358
116	0xbd4dcb84	-0.050242916
117	0xbdf38a4c	-0.118916124
118	0xbdb4783a	-0.08811994
119	0xbc74dee9	-0.014945724
120	0xbd8ece45	-0.069729365
121	0xbe09deac	-0.13463849
122	0xbce31dd2	-0.02772418
123	0xbd017b2b	-0.031611603
124	0xbd445d1e	-0.047940366
125	0xbba072ea	-0.0048965113
126	0x3da309e8	0.07960874
127	0x3b921ca3	0.00445898
128	0xbdc0c3f8	-0.09412378
129	0xbca3f526	-0.020014357
130	0xbce78e1a	-0.028266001
131	0xbd68b73e	-0.05681538
132	0xbd60a956	-0.05484899
133	0xbac9edb0	-0.0015405919
134	0xbdc1f326	-0.09470205
135	0xbd908556	-0.07056682
136	0xbd8dc678	-0.069226205
137	0xba1b805c	-0.0005931908
138	0x3aaffc2f	0.0013426597
139	0xbce7171b	-0.02820926
140	0xbda2aded	-0.0794333
141	0x3d0bbb5b	0.034114223
142	0xbbd20df7	-0.006410356
143	0x3d3296c8	0.043600827
144	0xbd6681a0	-0.056275964
145	0x3d2b27d8	0.041786045
146	0xbd28eaf3	-0.04123969
147	0xbcdb1cb9	-0.026747094
148	0x3cf2398a	0.029568452
149	0xbc6c9ed8	-0.014442168
150	0x3d78e50c	0.06076531
151	0xbd7aa0ae	-0.061188392
152	0xbd14a42c	-0.03628938
153	0x3d0d2cba	0.034466483
154	0x3d61766f	0.055044588
155	0x3e3c1719	0.18368186
156	0xbcbb4c65	-0.022863576
157	0xbca4a6ea	-0.020099122
158	0x3d36223b	0.04446624
159	0xbda1a206	-0.07892232
160	0x3c5a32d0	0.013317779
161	0xba6fd7ec	-0.00091493013
162	0xbc565f5e	-0.013084261
163	0xbbd24943	-0.006417425
164	0x3d58d17c	0.052934155
165	0x3d3cac8b	0.046062987
166	0x3abc7338	0.00143776
167	0x3da925c0	0.08259153
168	0x3e3f178c	0.18661326
169	0xbdc53035	-0.096283354
170	0x3d411234	0.0471365
171	0xbd4ca723	-0.04996408
172	0xbdbbdf40	-0.09173441
173	0xbdd4c167	-0.10388451
174	0xbdc4e876	-0.09614651
175	0xbd19d66c	-0.037558004
176	0x3cafabfc	0.021444313
177	0x3d2fde46	0.042936586
178	0xbd5227aa	-0.051307358
179	0x3c9569e7	0.018238975
180	0x3ce1617e	0.027512308
181	0x3d43c57b	0.047795754
182	0x3cf7decb	0.030257603
183	0xba855952	-0.0010173714
184	0xbd00d428	-0.031452328
185	0xbd1f6db1	-0.03892297
186	0x3dcfc8cf	0.10145723
187	0x3d4dfbc9	0.05028895
188	0x3d26ee21	0.04075444
189	0xbbe88a81	-0.007096589
190	0xbc92dc49	-0.017927306
191	0xbd97527a	-0.07388778
192	0xbd87b435	-0.06626169
193	0xbdb9764d	-0.09055767
194	0xbb4c60d2	-0.003118564
195	0x3bd8b986	0.006613913
196	0x3c5489c1	0.012972296
197	0xbabd1c0c	-0.0014427914
198	0xbb6db218	-0.0036269482
199	0x3d4e3142	0.050339945
200	0x3cab4d54	0.020910896
201	0xbdddffa6	-0.10839777
202	0xbdfd4a4d	-0.123676874
203	0x3ca8d619	0.020609902
204	0xbd19ee6c	-0.037580892
205	0x3c57ce48	0.01317174
206	0xbd9064fe	-0.07050513
207	0x3d227e81	0.039671425
208	0xbdb17f73	-0.08666887
209	0xbdc8c2db	-0.09802791
210	0x3cdc337c	0.026880018
211	0x3d619879	0.05507705
212	0xbc8cc00e	-0.017181423
213	0xbd970b9f	-0.073752634
214	0x3d8cb29c	0.068700045
215	0xbd08fa3f	-0.03344178
216	0xbd890eaf	-0.06692254
217	0xbdbdc9e2	-0.09267022
218	0xbd7cf5a2	-0.06175769
219	0xbd63b80c	-0.055595443
220	0xbc77e417	-0.015130064
221	0x3bfb8059	0.0076752123
222	0xbd83b972	-0.06431855
223	0x3d4c3bd8	0.04986176
224	0xbd8286fd	-0.06373403
225	0x3e5c96e7	0.2154194
226	0xbdaa6815	-0.08320633
227	0xbde9cd85	-0.11416153
228	0x3d58729c	0.052843675
229	0x3d5a1a69	0.053247843
230	0xbc6d0b6e	-0.014468057
231	0xbdd6cc83	-0.10488226
232	0x3c811971	0.015759202
233	0xbddad9ba	-0.10686059
234	0xbd81bad8	-0.06334466
235	0xba062f68	-0.00051187584
236	0xbd1bb89f	-0.038017865
237	0x3dd9a010	0.106262326
238	0xbd8b32b2	-0.06796779
239	0x3c284010	0.01026918
240	0xbd1e3004	-0.03862001
241	0xbd575c30	-0.05257815
242	0xbcbf9cbc	-0.023390166
243	0x3e02a15f	0.1275687
244	0x3bef8bbc	0.007310359
245	0xbcb0e4d9	-0.021593498
246	0xbda209d4	-0.07912031
247	0xbd4ae483	-0.049534332
248	0xbdf3e748	-0.11909348
249	0xbc67a0df	-0.014137476
250	0xbd4d1ce5	-0.050076384
251	0xbdeee1d4	-0.11664167
252	0x3d6186fa	0.055060364
253	0xbc443b91	-0.011977092
254	0xbcf132ed	-0.029443229
255	0x3d97f6f8	0.074201524

weight_ih_l1 f4 [520, 130]
0	0x3a424eac	0.0007412236
1	0x3d17c04e	0.03704863
2	0xbd15dee9	-0.036589537
3	0x3cbe9394	0.02326373
4	0xbda570b1	-0.08078135
5	0x3cb5c31d	0.022187764
6	0xbd86204d	-0.0654913
7	0xbc5b721c	-0.013393905
8	0x3bd1cc39	0.006402519
9	0xbd841cc2	-0.064507976
10	0x3d9b688a	0.075882986
11	0x3d820061	0.063477285
12	0xbcc36da0	-0.023855984
13	0x3d166163	0.03671397
14	0xbd4f7e06	-0.050657295
15	0xbdbd51ef	-0.09244143
16	0x3d8b9431	0.06815375
17	0xbd312cef	-0.043255743
18	0xbd8dda7d	-0.06926439
19	0xbd71c85a	-0.05902896
20	0x3cb01511	0.02149442
21	0x3b8c9e6a	0.0042913454
22	0x3d5848f3	0.052803945
23	0x3d83258c	0.06403646
24	0x3d7e8377	0.062137093
25	0xbd873c7e	-0.06603335
26	0xbda866e4	-0.0822275
27	0xbd63a10d	-0.055573512
28	0x3d140cc1	0.036144976
29	0xbccd30d1	-0.025047692
30	0xbcbef681	-0.023310902
31	0x3d4d9f65	0.05020084
32	0x3d7593ef	0.059955534
33	0xbcaf0e36	-0.021369081
34	0xbd9f980b	-0.07792672
35	0x3b99626f	0.0046809237
36	0xbcc5563b	-0.02408897
37	0xbd873854	-0.066025406
38	0xbd6805a1	-0.056645993
39	0x3dc5502f	0.096344344
40	0x3d58a8ff	0.052895542
41	0x3d7ec7bf	0.06220221
42	0xbd884ef4	-0.06655684
43	0x3db136ec	0.08653054
44	0x3d6169f6	0.055032693
45	0x3cc9451a	0.024569083
46	0x3d3aeb59	0.0456346
47	0xbcf64915	-0.030064145
48	0xbd42ba3a	-0.04754088
49	0xbcbc8058	-0.023010418
50	0x3ce5b9b7	0.028042657
51	0xbc3ea230	-0.011635348
52	0xbda8bd81	-0.0823927
53	0xbd4bfd89	-0.049802337
54	0xbd984ff6	-0.07437126
55	0xbcefc94f	-0.029270796
56	0x3d73f8ed	0.059563566
57	0xbd2e6870	-0.042580068
58	0xbbad6199	-0.0052911756
59	0x3dc2b361	0.0950687
60	0x3daf4f78	0.08560079
61	0x3d36e94d	0.044656087
62	0x3d0845d1	0.033269707
63	0x3cb8e016	0.02256779
64	0x3c912c96	0.017721456
65	0xbcbc60c0	-0.022995353
66	0xbcb74b6d	-0.022374833
67	0xbbfb7f21	-0.007675067
68	0x3d82e236	0.063908026
69	0x3c9ce9fb	0.01915454
70	0xbdcaf493	-0.0990993
71	0x3d3d1a2e	0.046167545
72	0x3d6306ae	0.055426292
73	0x3d851fe1	0.06500221
74	0x3c9d4e90	0.0192025
75	0x3d3079b9	0.043084834
76	0xbd865910	-0.06559956
77	0x3d34f923	0.044182908
78	0xbc7d1466	-0.015446758
79	0xbd946ea9	-0.07247669
80	0xbd9a1be3	-0.0752485
81	0xb9ea02be	-0.00044634
82	0xbda48b42	-0.08034374
83	0xbda70576	-0.081553385
84	0x3c48af27	0.012248791
85	0xbd80d8a1	-0.06291319
86	0x3dba5625	0.09098462
87	0xbd051253	-0.03248818
88	0xbd8d08f9	-0.06886477
89	0xbd8749fd	-0.06605909
90	0x3d1ae927	0.037820008
91	0x3d8957c0	0.0670619
92	0xbd89d384	-0.067297965
93	0x3da6eef2	0.08151044
94	0xbda750b5	-0.081696905
95	0xbb96e4f5	-0.0046049305
96	0x3dd1bc9e	0.10241054
97	0xbd0daca7	-0.034588482
98	0x3d3db560	0.04631555
99	0x3bd9b156	0.0066434545
100	0x3c4cc110	0.012497202
101	0xbd9a8c8e	-0.0754634
102	0xbd6af0de	-0.057358615
103	0x3d9fff25	0.07812337
104	0xbd6bd8c5	-0.057579774
105	0xbae25064	-0.001726639
106	0x3dbdf4df	0.09275221
107	0xbd6613a3	-0.05617107
108	0xbca7691c	-0.020435862
109	0xbd2a6d5c	-0.0416082
110	0xbd761c8e	-0.060085826
111	0xbd92f71d	-0.07176039
112	0x3d68b1a1	0.056810025
113	0x3d13d3a4	0.036090508
114	0x3d057b9e	0.032588594
115	0xb9919d73	-0.00027773864
116	0xbcb513a1	-0.022104086
117	0x3cf50e67	0.029914094
118	0x3d7f71f9	0.062364552
119	0x3d1bdf9c	0.038055047
120	0xbd69411c	-0.05694686
121	0xbcf711f4	-0.030159928
122	0xbc802274	-0.015641429
123	0xbdb6b1ea	-0.08920653
124	0xbc514c91	-0.0127746025
125	0x3d96501e	0.073395
126	0xbd163c6c	-0.036678717
127	0x3d07a3b1	0.033115093
128	0x3bd22bf1	0.0064139296
129	0x3da3e41b	0.08002492
130	0x3be12107	0.0068703922
131	0x3d5851fe	0.05281257
132	0xbd4a04e5	-0.049321074
133	0xbd88d7de	-0.066817984
134	0xbd81ec89	-0.063439436
135	0x3db71e3f	0.08941316
136	0x3da7292d	0.081621505
137	0xbd1ef887	-0.038811233
138	0xbd8c624b	-0.068546854
139	0x3d26f5fa	0.040761925
140	0x3de29dcd	0.11065254
141	0x3cfe77a7	0.031062914
142	0xbcee216b	-0.02906867
143	0xbdd20be5	-0.10256175
144	0xbd5543a3	-0.052066457
145	0x3b2e418a	0.0026589357
146	0x3de831ba	0.113376096
147	0xbc69bb95	-0.014265914
148	0x3d3b97b1	0.04579896
149	0x3bc795b2	0.006090843
150	0x3cefbd98	0.02926521
151	0xbd42be5b	-0.04754482
152	0x3d14233e	0.036166422
153	0x3db5ce99	0.08877296
154	0x3d74791e	0.05968582
155	0xbdfd10b7	-0.12356704
156	0xbda6f4df	-0.08152174
157	0x3d08a685	0.03336193
158	0x3cb2b8f7	0.021816714
159	0x3d185c17	0.0371972
160	0xbd504632	-0.050848193
161	0xbcd085f3	-0.025454497
162	0x3db35a19	0.08757419
163	0xbd6665db	-0.05624948
164	0xbd885d52	-0.066584244
165	0x3ced31cd	0.02895441
166	0x3d8178ef	0.063218944
167	0xbd8c6a7a	-0.06856246
168	0xbe1ee544	-0.15517145
169	0x3c7d4bc9	0.015459963
170	0xbd9abaa0	-0.07555127
171	0x3d4be8e5	0.049782652
172	0xbcb05795	-0.021526137
173	0x3ce1c498	0.027559564
174	0x3b5b12a3	0.0033427856
175	0xbd90ff52	-0.070799485
176	0x3ca2a801	0.019855501
177	0xbd2949a1	-0.041329984
178	0x3caceb98	0.021108434
179	0xbd11c5f8	-0.03558919
180	0x3da07344	0.07834485
181	0x3d4ff4b8	0.05077049
182	0x3ca1423a	0.0196849
183	0x3dbb79b6	0.09154074
184	0xbd949e4c	-0.07256755
185	0x3d6912b6	0.05690261
186	0xbdbc43c6	-0.09192614
187	0x3c3dc2e9	0.011582115
188	0x3bdfcc02	0.0068297395
189	0x3dd6fcd6	0.104974434
190	0x3db6b92a	0.08922036
191	0xbd0cf6c1	-0.03441501
192	0x3da7585e	0.081711516
193	0x3d403c5d	0.046932567
194	0x3d5c7910	0.05382639
195	0x3bb7adc0	0.0056054294
196	0xbcecd797	-0.028911395
197	0x3d6e8701	0.05823422
198	0x3c7cbc4b	0.015425752
199	0x3d83c003	0.06433108
200	0x3cf2410e	0.029572036
201	0x3c26c2e8	0.010178305
202	0xbd027ea7	-0.031859066
203	0x3d8af31f	0.06784653
204	0x3d01dd60	0.03170526
205	0xbc9b45e8	-0.018954232
206	0x3d336c17	0.043804254
207	0x3c82fbb3	0.01598916
208	0x3ca05dda	0.019576002
209	0x3d3818b3	0.04494543
210	0x3c698279	0.0142522985
211	0x3d872ee8	0.066007435
212	0xbbf4e234	-0.0074732546
213	0xbd38d306	-0.045123123
214	0xbb82d843	-0.0039930656
215	0x3c98833e	0.018617269
216	0xbcb903a0	-0.022584736
217	0xbd6eaf18	-0.05827245
218	0xbc184e61	-0.009296031
219	0x3cd9c244	0.02658189
220	0x3d1a169e	0.037619226
221	0x3d9c811b	0.076418124
222	0xbcf5f657	-0.03002469
223	0x3d187b85	0.037227172
224	0xbaacae36	-0.0013174477
225	0x3e2a77d9	0.16647281
226	0xbb33f468	-0.002745891
227	0x3d66623d	0.05624603
228	0x3dbf9028	0.093536675
229	0xbd6297c0	-0.0553205
230	0x3d2fe24f	0.042940434
231	0x3c5f9600	0.013646603
232	0x3da9275e	0.08259462
233	0xbd657130	-0.056016147
234	0x3e2dbb49	0.16965975
235	0x3d0ed4ec	0.034871027
236	0xbd73b832	-0.059501834
237	0xbcdb3eb9	-0.026763307
238	0x3c6752f9	0.014118903
239	0xbcde1e37	-0.027114017
240	0x3c1d948f	0.009617939
241	0x3c8ac020	0.016937315
242	0x3d88d1bd	0.066806294
243	0xbd816e5a	-0.06319876
244	0x3d966383	0.07343199
245	0x3cbd13bb	0.023080697
246	0xbd0a3908	-0.033745795
247	0xbda2db3e	-0.079519734
248	0xbd803e29	-0.06261856
249	0xbca516f7	-0.020152552
250	0xbafb9d0f	-0.0019196587
251	0x3d339938	0.043847293
252	0xbd35eaa6	-0.04441323
253	0x3d74c4d0	0.059758008
254	0xbd25f656	-0.040518127
255	0x3dfebf9c	0.1243889

weight_hh_l1 f4 [520, 130]
0	0xbdb475e5	-0.08811549
1	0xbc26ef6b	-0.010188918
2	0xbcb36d4b	-0.0219027
3	0xbcb5517e	-0.022133585
4	0xbd5d03a4	-0.05395855
5	0xbde545cc	-0.11194953
6	0x3d25a2e2	0.04043854
7	0xbcb9cae5	-0.022679755
8	0x3d4152f7	0.047198262
9	0xb940244c	-0.00018324069
10	0xbbd9364d	-0.0066287876
11	0xbdb098af	-0.08622872
12	0xbd9c4c08	-0.07631689
13	0xbceaa684	-0.028643854
14	0x3d66a5e1	0.05631054
15	0x3db44eed	0.088041164
16	0xbb4d0613	-0.0031284138
17	0x3a9a5362	0.0011774118
18	0xbda329d9	-0.07966966
19	0xbd8c05c6	-0.06837039
20	0x3c9dc8ac	0.019260727
21	0xbd6841f5	-0.056703527
22	0xbd3cf663	-0.04613341
23	0x3d17b17c	0.037034497
24	0x3d280ccc	0.04102783
25	0x3d6979d8	0.057000965
26	0xbd90831b	-0.070562564
27	0x3d3561cf	0.04428273
28	0x3d43df3a	0.047820307
29	0xbd334acb	-0.0437725
30	0x3d1c5e11	0.038175646
31	0xbb6cd67b	-0.0036138583
32	0xbc73b84b	-0.014875482
33	0xbd16cc21	-0.036815766
34	0xbcb04e93	-0.021521842
35	0xbd755394	-0.05989416
36	0xbcaafd4f	-0.02087274
37	0xbda0e445	-0.07856039
38	0xbd079077	-0.033096757
39	0xbd95b22f	-0.073093764
40	0xbdc2ce31	-0.09511984
41	0xbd8aa8bf	-0.06770467
42	0x3c1ffc5e	0.009764759
43	0x3d2b8aab	0.04188029
44	0xbcb07412	-0.021539722
45	0x3d38023d	0.04492401
46	0xbdb2ec8e	-0.087365255
47	0x3c91880e	0.017765071
48	0xbd394efb	-0.045241337
49	0x3c7a715c	0.015285816
50	0x3cee948c	0.029123567
51	0x3d1cf3b7	0.038318362
52	0xbd558015	-0.0521241
53	0xbcf2b975	-0.029629448
54	0x3b8aa9d6	0.004231672
55	0xbba02cdf	-0.0048881616
56	0x3d6a4ade	0.057200305
57	0x3d416e42	0.04722429
58	0xbcfad609	-0.030619638
59	0xbd9ba15e	-0.07599138
60	0x3c896877	0.016773446
61	0x3d1a8f3b	0.03773425
62	0xbcb12cd5	-0.021627823
63	0x3a051ddf	0.00050779985
64	0x3d0042fb	0.031313878
65	0x3d8d9eb8	0.06915039
66	0x3d182b21	0.037150506
67	0x3c3db0e6	0.01157782
68	0x3d023016	0.03178414
69	0x3ca8add6	0.020590704
70	0x3bc4c59f	0.0060050036
71	0x3d861888	0.06547648
72	0xbdc998e1	-0.098436125
73	0xbd0f2aa7	-0.034952786
74	0x3d10e230	0.03537196
75	0xbbeb149f	-0.007174089
76	0xbd994b24	-0.07485035
77	0x3d29fcb9	0.04150078
78	0xbd8254b6	-0.063638136
79	0x3da03c6a	0.07824023
80	0x3d4cfb9f	0.050044652
81	0xbc2e460f	-0.01063682
82	0x3c7e896e	0.0155356955
83	0x3c83a12b	0.016068062
84	0xbd9fc835	-0.07801858
85	0x3ca83168	0.020531371
86	0xbda78114	-0.081789166
87	0xbc333f55	-0.0109403925
88	0x3c2519d0	0.010076955
89	0xbc868034	-0.016418554
90	0xbcf8b620	-0.030360281
91	0xbd9ab3b4	-0.07553807
92	0x3d60cd85	0.0548835
93	0xbc93de1c	-0.018050246
94	0x3db14cb2	0.086572066
95	0x3d1a8bc4	0.037730947
96	0x3cb3cdfb	0.021948805
97	0xbd81683e	-0.06318711
98	0x3c964a41	0.018345954
99	0xbc9d83ee	-0.019227948
100	0x3dcbb560	0.09946704
101	0x3dab9609	0.08378226
102	0x3d088978	0.033334225
103	0x3c23e5e0	0.010003537
104	0xbd68ad55	-0.056805927
105	0xbcf4eb98	-0.029897496
106	0x3d4cb903	0.04998113
107	0x3d4dbdfa	0.050230004
108	0xbd55fca6	-0.052242897
109	0x3dd3b018	0.103363216
110	0x3d8c4196	0.06848447
111	0xbcb206df	-0.021731792
112	0x3c9793f3	0.018503165
113	0xbd83926b	-0.064244114
114	0xbd25657a	-0.04037998
115	0xbd3ba96e	-0.045815878
116	0x3d62f431	0.05540866
117	0xbcaf2fdf	-0.021385131
118	0x3c8e0b53	0.017339384
119	0x3adfe160	0.0017080717
120	0xbda01ac4	-0.07817605
121	0xbcb1ca34	-0.021702863
122	0xbda53454	-0.080666214
123	0x3dc3e54e	0.09565221
124	0x3bcb04bb	0.0061956323
125	0xbb7d4712	-0.0038647098
126	0xbd8b127c	-0.06790635
127	0xbccf1784	-0.025279768
128	0x3dbe1f0f	0.09283268
129	0x3cc78d2d	0.02435931
130	0x3d4198cd	0.047264863
131	0x3da4ffc6	0.080565974
132	0x3d9c1e0b	0.07622918
133	0xbbe22738	-0.006901648
134	0x3d3c3369	0.045947466
135	0xbd900b4a	-0.07033403
136	0xbd3beda6	-0.045880936
137	0xbd0f4ca8	-0.034985214
138	0x3dbb893b	0.09157034
139	0x3dae94c8	0.085244715
140	0xbd6a4a65	-0.057199854
141	0xbd13299e	-0.03592836
142	0x3c1be522	0.009515079
143	0xbd82f051	-0.06393493
144	0x3ca32c40	0.019918561
145	0xbc924f62	-0.017860118
146	0xbd558a5b	-0.0521339
147	0xba294702	-0.00064574194
148	0xbd159951	-0.036523167
149	0x3c3b6f86	0.0114401635
150	0x3c91558a	0.017740984
151	0xbdae947e	-0.085244164
152	0x3cc16176	0.023606043
153	0xbcc5ec6c	-0.024160586
154	0x3c99e17d	0.018784279
155	0xbd3324dd	-0.043736327
156	0xbd6a7cf9	-0.05724809
157	0xbdb51d3e	-0.08843468
158	0x3d22e27c	0.039766774
159	0x3d889f61	0.06671024
160	0xbcf3308b	-0.029686233
161	0xbd8399c2	-0.06425811
162	0x3d9ebe68	0.07751161
163	0x3d23ac82	0.03995944
164	0x3d163ea4	0.036680833
165	0xbd0230f5	-0.03178497
166	0xbd29367c	-0.041311726
167	0xbb1ce8ee	-0.0023942548
168	0xbc82be2d	-0.015959824
169	0xbdf60615	-0.12012879
170	0xbd8988f9	-0.067155786
171	0x3d83b0dd	0.06430218
172	0x3cd0245b	0.02540796
173	0x3d46da81	0.048548225
174	0xbd16a6b6	-0.03678008
175	0xbbdf108c	-0.0068073925
176	0xbda586b9	-0.08082337
177	0x3dc91aed	0.09819589
178	0x3dc6fbe2	0.097160116
179	0x3c8b9149	0.01703705
180	0x3d9e525e	0.07730554
181	0x3bc32149	0.0059548956
182	0xbc0d1ef8	-0.008613341
183	0xbd4dd531	-0.050252143
184	0xbd0294c6	-0.031880163
185	0x3d9dfb76	0.07713978
186	0xbddcbb29	-0.107778855
187	0x3c3e2c6c	0.011607271
188	0xbc0f2b7a	-0.008738393
189	0xbcd1e557	-0.025622053
190	0x3d261841	0.040550474
191	0x3cbc88e4	0.023014493
192	0xbce714bc	-0.02820813
193	0x3d1f9ce1	0.03896797
194	0xbc957cfe	-0.018248077
195	0xbd621b00	-0.05520153
196	0xbc8790bd	-0.016548509
197	0x3ca76cee	0.020437684
198	0xbd6ef4be	-0.058338873
199	0x3d5b55d2	0.05354864
200	0x3d9a070e	0.07520877
201	0xbc92322e	-0.017846193
202	0xbd59d921	-0.053185586
203	0x3cd95092	0.026527677
204	0xbd3a5c5b	-0.045498233
205	0x3daba19e	0.083804354
206	0xbcbbb22e	-0.022912111
207	0xbc962a32	-0.018330667
208	0xbd2e04f4	-0.042485192
209	0xbd8f7d13	-0.07006278
210	0xbcfbbc52	-0.030729447
211	0x3da5328d	0.080662824
212	0x3d00d558	0.03145346
213	0xbdb3de13	-0.08782592
214	0xbdbb32ce	-0.091405496
215	0x3d634ccc	0.05549316
216	0xbd55b4bf	-0.052174326
217	0x3d55776b	0.05211584
218	0xbd3527a6	-0.044227265
219	0xbcb473fa	-0.022027958
220	0xbd7d4790	-0.061835825
221	0xbd92f2f3	-0.07175245
222	0x3d9d9a3c	0.076954335
223	0x3da4c304	0.08045009
224	0xbd711cff	-0.058865543
225	0xbd597f41	-0.053099874
226	0x3dde5464	0.1085594
227	0x3d37d411	0.044879977
228	0x3cfc3594	0.030787267
229	0x3c9bf5bc	0.019038074
230	0x3da89b25	0.082327165
231	0xbc9ab8cc	-0.018886946
232	0x3d9ab66c	0.075543255
233	0xbc5f7fe2	-0.0136413295
234	0x3d65bdd5	0.05608924
235	0xbaf83fe0	-0.0018939935
236	0x3d31d77e	0.0434184
237	0xbdbaed1a	-0.09127255
238	0xbd92b988	-0.071642935
239	0x3d911cc8	0.07085568
240	0xbd5d96f0	-0.054099023
241	0x3d8c5d38	0.068537176
242	0x3d0cb58e	0.03435283
243	0xbdc18bba	-0.09450479
244	0x3d91b7a6	0.07115106
245	0xbb57dd5b	-0.0032938335
246	0x3d8ebb01	0.06969262
247	0x3dd79ef5	0.105283655
248	0xb921f803	-0.00015446548
249	0xbdacb117	-0.08432215
250	0x3c7e625b	0.015526379
251	0x3d8af69d	0.06785319
252	0xbd0823ab	-0.03323714
253	0xbc442fc2	-0.011974277
254	0x3d2dd3e5	0.042438406
255	0xbc35627f	-0.011070847

bias_ih_l1 f4 [520]
0	0xbdb69bf6	-0.08916466
1	0xbd0f6aec	-0.035014078
2	0xbdcb382b	-0.099228226
3	0x3d3640ee	0.044495516
4	0xbc77fdb5	-0.015136172
5	0xbd0e988a	-0.03481344
6	0x3d36f915	0.044671137
7	0xbdc240b6	-0.09484999
8	0xbd5e9351	-0.05433971
9	0x3c30edbc	0.010798868
10	0x3cdf570f	0.027263192
11	0x3d0c3f64	0.03424014
12	0xbcf5020c	-0.029908203
13	0x3d4439d2	0.047906704
14	0xbd88b44e	-0.066750154
15	0xbd90ea04	-0.07075885
16	0x3d0b1497	0.033955183
17	0x3c8b331c	0.016992144
18	0x3cd18f30	0.025580972
19	0xbdbbc318	-0.091680706
20	0x3acf4456	0.0015813212
21	0x3cdb5b82	0.026777033
22	0x3d8158b1	0.06315745
23	0xbd23f2ff	-0.04002666
24	0xbb562260	-0.0032674298
25	0xbccae8c4	-0.024769194
26	0xbd3b0e83	-0.045668136
27	0xbdc2ff8b	-0.09521397
28	0xbe12965b	-0.14315169
29	0x3c683fc5	0.01417536
30	0x3d0b96b5	0.034079272
31	0x3d1f5d02	0.03890706
32	0xbd1707e1	-0.03687275
33	0x3d1da388	0.038486034
34	0xbd7847e2	-0.060615428
35	0xbdc86746	-0.09785323
36	0xbd0a61b0	-0.03378457
37	0xbe2038a7	-0.15646611
38	0x3d566ba8	0.052348763
39	0x3d43a461	0.047764186
40	0xbcaaf541	-0.0208689
41	0x3d2b3768	0.041800886
42	0xbc89c5a0	-0.016817868
43	0x3d4859ee	0.04891389
44	0xbd405766	-0.04695835
45	0xbd86b3e6	-0.06577282
46	0x3d4863d6	0.048923336
47	0xbb6360f5	-0.0034695242
48	0xbdd21ca7	-0.10259371
49	0x3c0a8d94	0.008456606
50	0xbdc1f67b	-0.094708405
51	0x3d2aa0f3	0.0416574
52	0x3be58eff	0.007005572
53	0x3dae3c22	0.08507563
54	0x3d196950	0.03745395
55	0xbdc6dbf1	-0.09709919
56	0xbbf7c73b	-0.007561592
57	0xbd8e58d9	-0.0695054
58	0xbd58cb77	-0.052928414
59	0xbdc43ea1	-0.09582258
60	0x3c230268	0.009949304
61	0x3d3fadcd	0.04679661
62	0xbddf5f44	-0.10906842
63	0xbd9b71a5	-0.07590035
64	0xbcc3d48e	-0.023905065
65	0x3d8936bc	0.06699893
66	0xbdd79422	-0.10526301
67	0x3d1bfe85	0.038084526
68	0x3d04b8fd	0.03240298
69	0x3ce1ac30	0.027547926
70	0xbd686ce9	-0.05674449
71	0xbd667a1d	-0.0562688
72	0xbca4998d	-0.02009275
73	0xbe3d668f	-0.18496154
74	0xbd3d7f8a	-0.04626421
75	0x3d1ffef4	0.0390615
76	0x3c9c21bf	0.01905906
77	0xbda23a83	-0.079213165
78	0xbd2bcc5f	-0.04194295
79	0xbd8fa891	-0.07014573
80	0xbd9c324e	-0.07626782
81	0x3c89b064	0.016807742
82	0x3d8366b0	0.064160705
83	0x3d01598c	0.03157954
84	0xbc39e530	-0.011346146
85	0x3d48c360	0.04901445
86	0xbd18f5f7	-0.037343945
87	0xbc96836b	-0.018373212
88	0xbba433af	-0.005011044
89	0x3d7d17db	0.06179033
90	0xbe36981c	-0.17831463
91	0x3c84f137	0.016228301
92	0xbd64c13e	-0.055848353
93	0xbc1468ba	-0.009058172
94	0xbc1f44e4	-0.009721015
95	0xbd2dedbd	-0.042463053
96	0xbd72d6d2	-0.0592869
97	0x3d8c72db	0.068578444
98	0x3c17f533	0.009274769
99	0x3d79b0dc	0.060959682
100	0xbd6f1255	-0.058367092
101	0x3ce5830a	0.028016586
102	0x3cadabec	0.021200143
103	0xbcd20e6f	-0.025641648
104	0xbd75476d	-0.05988257
105	0x3ca905ab	0.020632586
106	0xbdcebdd5	-0.10094801
107	0xbbe18174	-0.006881887
108	0xbd2195e0	-0.039449573
109	0xbbe96232	-0.0071223015
110	0x3a5ab72d	0.00083433354
111	0xbd4cc21f	-0.049989816
112	0x3d92a442	0.07160236
113	0xbd0d0326	-0.03442683
114	0xbd8ac24d	-0.06775341
115	0x3e1ca8a4	0.15298706
116	0xbdfdd16e	-0.12393461
117	0xbd36df90	-0.0446468
118	0xbd581d95	-0.052762587
119	0xbd72420c	-0.05914502
120	0x3d67b3de	0.05656802
121	0xbdd744e9	-0.105111904
122	0x3d80ae64	0.06283262
123	0x3cc58bb7	0.024114473
124	0xba4383e6	-0.0007458314
125	0xbcde527c	-0.027138941
126	0xbdad63e0	-0.08466315
127	0x3d7e4b42	0.06208349
128	0xbc2c2473	-0.010506737
129	0x3d29bc3d	0.041439284
130	0x3c17d951	0.009268121
131	0xbd220bf7	-0.03956219
132	0xbccde1b2	-0.025132034
133	0xbdd8c84c	-0.105850786
134	0x3cf9965b	0.030467203
135	0xbd2eaae2	-0.042643435
136	0x3d8a62a1	0.06757093
137	0xbd283124	-0.04106249
138	0xbbd0cb2d	-0.0063718767
139	0xbdc31478	-0.095253885
140	0xbdc1fabb	-0.09471651
141	0xbc9238e1	-0.017849388
142	0x3d3e814c	0.046510026
143	0xbddc4e0b	-0.10757073
144	0x3d8df916	0.06932275
145	0xbc2556ba	-0.010091478
146	0x3cbbafd1	0.022910984
147	0xbcc6675b	-0.024219206
148	0x3cd49612	0.025950465
149	0x3d232936	0.039834224
150	0xbc2aa5e4	-0.010415528
151	0xbdb97147	-0.09054809
152	0xbc19e0b3	-0.009391951
153	0xbcfd897b	-0.030949345
154	0xbd994fc9	-0.07485921
155	0xbd3eb977	-0.04656359
156	0xbd8455fe	-0.06461714
157	0xbce96016	-0.0284882
158	0xbc233c52	-0.009963112
159	0xbc61e00f	-0.01378633
160	0xbda24cfa	-0.07924838
161	0xbd390130	-0.045167148
162	0x3d94962e	0.07255207
163	0xba13483e	-0.000561837
164	0xbd059b69	-0.032618914
165	0xbdbacb37	-0.091207914
166	0x3cda2c40	0.026632428
167	0xbd90b850	-0.07066405
168	0x3d1913dc	0.037372455
169	0xbcb8a8f1	-0.022541495
170	0x3d8af718	0.06785411
171	0x3d39e872	0.045387693
172	0xbd5c876a	-0.05384008
173	0x3b6b76d1	0.0035928974
174	0xbc9c3ec1	-0.019072892
175	0x3cb45fca	0.022018332
176	0x3d78fd6e	0.060788564
177	0x3d228a24	0.039682522
178	0xbdccaf36	-0.09994356
179	0xbd959586	-0.0730391
180	0xbe13c5c7	-0.14430915
181	0x3ca289ea	0.019841153
182	0xbd6ef15d	-0.05833565
183	0xbc08709f	-0.008327632
184	0xbdd151b2	-0.1022066
185	0xbdb95216	-0.0904886
186	0x3cd7bc6c	0.026334964
187	0xbe1e1fff	-0.15441893
188	0x3cea6e8d	0.028617168
189	0xbd85332a	-0.065038994
190	0xbdd7b709	-0.10532958
191	0x3d7ea286	0.062166713
192	0x3d5b85c4	0.053594366
193	0xbc0b912e	-0.0085185
194	0xbdc39a59	-0.09550924
195	0x3c06f7ee	0.008237822
196	0x3d63bffd	0.055603016
197	0xbd2e51cb	-0.042558473
198	0x3c5994fa	0.013280148
199	0x3d4320d1	0.047638718
200	0x3d8831fd	0.066501595
201	0xbdb93080	-0.09042454
202	0x3ca9dd07	0.020735277
203	0xbe160b61	-0.14652778
204	0x3d9ccca7	0.07656222
205	0xbdc803fb	-0.09766384
206	0xbc66dbe5	-0.014090513
207	0x3d4f4ca4	0.0506102
208	0xbdbafd3c	-0.09130332
209	0x3d2b5cbf	0.041836496
210	0xbd851f70	-0.06500137
211	0xbd81e602	-0.06342699
212	0x3d722aab	0.059122723
213	0x3d625de2	0.055265315
214	0xbb7a4566	-0.0038188337
215	0x3d3a0c2d	0.045421768
216	0xbd59d05a	-0.053177215
217	0x3d84f457	0.064919166
218	0xbdaa4f71	-0.083159335
219	0xbc400da0	-0.011721998
220	0xbe527fba	-0.20556536
221	0xbd89ba0a	-0.06724937
222	0xbbd06d7c	-0.006360708
223	0xbd9ce0f9	-0.07660098
224	0x3ba5d5ca	0.005060886
225	0xbdc0f4a4	-0.094216615
226	0xbc1c039a	-0.009522343
227	0xbdab4b6d	-0.08363996
228	0x3ca145ef	0.019686667
229	0xbdf1bcbc	-0.11803576
230	0xbdecb7c7	-0.1155849
231	0xbc1b960f	-0.009496226
232	0xbdd05157	-0.10171764
233	0xbccf79d0	-0.02532664
234	0x3d18a802	0.0372696
235	0xbd5ac016	-0.053405844
236	0xbdbcba44	-0.09215215
237	0xbca0a930	-0.019611925
238	0xbd15e142	-0.036591776
239	0xbdaa30be	-0.08310078
240	0x3cf81d5f	0.030287443
241	0xbe266d2a	-0.1625258
242	0x3d917a53	0.071034096
243	0xbdd307a5	-0.103041925
244	0xbc0031fc	-0.007824417
245	0xbd2ff813	-0.04296119
246	0xbb976932	-0.0046206946
247	0xbd473897	-0.048637953
248	0xbd862a5e	-0.0655105
249	0xbd559e2d	-0.0521528
250	0xbd16cd15	-0.036816675
251	0x3b3c1d08	0.0028703827
252	0xbd59f754	-0.053214386
253	0xbdc9c01b	-0.09851094
254	0xbd8f7d77	-0.070063524
255	0xbd4cbb5a	-0.04998336
